model_cnn.pth (torch, 435608 bytes, 8 tensors)

conv1.weight f4 [6, 3, 5, 5]
0	0x3de6b795	0.11265484
1	0x3e1515cf	0.145591
2	0x3d1ae738	0.037818164
3	0x3da25c60	0.079277754
4	0x3d804337	0.0626282
5	0x3db1ec7b	0.08687683
6	0x3c901319	0.017587231
7	0x3d5ed134	0.05439873
8	0x3ce664fb	0.028124323
9	0x3d887bc8	0.066642344
10	0xbd0ceda4	-0.03440632
11	0x3d931b96	0.07182996
12	0xbd9b7767	-0.075911336
13	0x3c9fb000	0.019493103
14	0x3dd831db	0.10556384
15	0xbdd69199	-0.10476989
16	0x3d4242d5	0.047427017
17	0xbde976f3	-0.11399641
18	0xbdaa55f8	-0.083171785
19	0xbd3915f3	-0.045186948
20	0xbd62f4f9	-0.055409405
21	0xbddc977b	-0.1077108
22	0xbd6eb25f	-0.058275577
23	0xbd8618d5	-0.06547705
24	0xbc81ec3d	-0.015859718
25	0xbe05fd47	-0.13084899
26	0xbdf40a09	-0.119159766
27	0xbc67c6dc	-0.014146533
28	0xbc8be4a1	-0.017076792
29	0xbe1a6716	-0.15078387
30	0xbe4f648f	-0.20253204
31	0xbdc8ee75	-0.09811107
32	0xbc2b98e6	-0.010473466
33	0xbc3669ea	-0.01113365
34	0xbdb6d316	-0.0892698
35	0xbc130597	-0.008973501
36	0xbcf10df8	-0.029425606
37	0x3c49915a	0.012302721
38	0xbabca9c6	-0.0014393858
39	0xbe2a0495	-0.1660331
40	0xbdb09fab	-0.08624204
41	0xbdde60de	-0.1085832
42	0x3c7cbae1	0.015425415
43	0x3c595c4e	0.013266636
44	0xbc9be576	-0.019030314
45	0xbcf8dac3	-0.030377751
46	0xbcff55f2	-0.031168912
47	0xbe2a0b6b	-0.16605918
48	0xbc3c3bb6	-0.011488846
49	0xbd477d9c	-0.048703775
50	0xbd37e58f	-0.04489666
51	0x3c7da5be	0.015481411
52	0x3de56ba5	0.11202172
53	0xbc67979b	-0.014135267
54	0x3dfdcff4	0.123931795
55	0x3d975ced	0.07390771
56	0x3e4de37d	0.20106311
57	0x3e350654	0.17678195
58	0x3e33a40e	0.1754305
59	0x3d912a97	0.070882015
60	0xbd910f92	-0.07083048
61	0x3cb2d8d2	0.021831904
62	0x3e5135da	0.20430699
63	0x3e194b62	0.14970163
64	0x3e2a3557	0.1662191
65	0x3dd196a2	0.10233809
66	0x3d6ba156	0.05752691
67	0x3df44686	0.11927514
68	0x3e26397a	0.16232863
69	0x3dfedb1b	0.12444135
70	0x3d442728	0.047888905
71	0x3dcf66a7	0.10127001
72	0x3e47d2f0	0.1951406
73	0x3dad4fda	0.08462496
74	0x3db6f28f	0.08932983
75	0x3d8b5d47	0.068049006
76	0x3da7b820	0.08189416
77	0x3d3d4ff8	0.046218842
78	0xbdbc1cef	-0.09185206
79	0x3e0dadf9	0.13835897
80	0xbd0db72b	-0.03459851
81	0x3e211ad8	0.15732896
82	0xbe079a44	-0.13242441
83	0xbdd6e22c	-0.104923576
84	0x3e0233ef	0.12715124
85	0x3dc4c661	0.0960815
86	0x3e5177e6	0.20455894
87	0xbde64da2	-0.11245276
88	0xbe8432d7	-0.25820038
89	0x3d88548a	0.066567495
90	0x3cc56765	0.024097154
91	0x3e112c94	0.14177161
92	0xbdc8fa1e	-0.09813331
93	0xbeafc577	-0.3433034
94	0x3e121886	0.14267167
95	0x3cd2321e	0.025658663
96	0x3e0db337	0.13837896
97	0x3cf94690	0.030429155
98	0xbd3af233	-0.045641135
99	0xbd74165e	-0.059591644
100	0xbd1b061b	-0.03784762
101	0xbcde0297	-0.027100844
102	0xbe2e2aa3	-0.17008452
103	0xbc5fd52a	-0.013661662
104	0xbd6a7aa5	-0.05724587
105	0x3dd8f235	0.10593072
106	0xbc386f1e	-0.011256961
107	0xbe42ad24	-0.1901136
108	0xbe582c10	-0.21110559
109	0x3e11bdd8	0.14232576
110	0x3b9fe082	0.0048790583
111	0x3def94ee	0.11698328
112	0xbe6d0367	-0.23145829
113	0xbe500d49	-0.20317568
114	0x3e53d4e6	0.20686683
115	0x3e07da45	0.13266857
116	0x3e06d2c4	0.13166338
117	0xbe026e22	-0.12737325
118	0xbea6adff	-0.32554623
119	0x3d665486	0.05623295
120	0x3d9fae00	0.0779686
121	0x3dcd9e33	0.1003994
122	0x3e023aae	0.12717697
123	0x3b619694	0.0034422027
124	0x3b946e64	0.004529761
125	0x3c0a9df4	0.0084605105
126	0xbc90debd	-0.017684335
127	0x3ce8fac5	0.028439889
128	0xbdba657e	-0.09101389
129	0x3d9d25d0	0.07673228
130	0x3d224891	0.039619986
131	0x3e4251d5	0.18976529
132	0xbd8b5800	-0.06803894
133	0xbe69fe86	-0.22850999
134	0x3e1768d9	0.1478609
135	0x3de686dd	0.11256192
136	0x3dfeceed	0.12441812
137	0xbe0ddd87	-0.13854037
138	0xbea04018	-0.312989
139	0x3e0861a2	0.13318494
140	0xba892b67	-0.0010465205
141	0x3e32395f	0.17404698
142	0x3defb755	0.1170489
143	0xbe9c7766	-0.30559844
144	0xbcb7e69b	-0.022448828
145	0x3ce48296	0.0278943
146	0x3dab8827	0.083755784
147	0x3e044015	0.1291507
148	0xbe03e385	-0.1287976
149	0xbd1a3931	-0.0376522
150	0xbcf960c3	-0.030441647
151	0xbdf92ac4	-0.1216636
152	0xbe0bf99c	-0.13669437
153	0xbda96c21	-0.08272577
154	0xbe132960	-0.14371252
155	0xbd679472	-0.056538053
156	0xbe30f50e	-0.17280981
157	0xbdf17504	-0.11789897
158	0xbd5e607f	-0.054291245
159	0xbd1e0876	-0.038582288
160	0xbd96441b	-0.07337209
161	0xbd5c4a74	-0.05378194
162	0xbe3666f4	-0.17812711
163	0xbdffac79	-0.124840684
164	0xbe21d720	-0.1580472
165	0xbe1ec9a7	-0.15506612
166	0xbd908e10	-0.07058346
167	0xbcd55005	-0.026039133
168	0xbe240d35	-0.16020663
169	0xbcfcdd90	-0.030867368
170	0xbdbaba9b	-0.091176234
171	0xbd59f2f5	-0.053210218
172	0xbc928670	-0.01788637
173	0xbcf15e83	-0.029464012
174	0x3dd0458a	0.101695135
175	0x3c48db87	0.012259371
176	0x3de6a924	0.1126273
177	0x3e05376f	0.13009427
178	0x3d3d21d3	0.046174835
179	0x3d8ebeab	0.06969961
180	0xbd87d8ac	-0.06633124
181	0x3d58c402	0.052921303
182	0xbd9284ea	-0.071542576
183	0x3cf8ea65	0.030385206
184	0xbdb2c532	-0.08729018
185	0xbce8b1c0	-0.02840507
186	0x3d9c4d43	0.07631924
187	0xbba04c76	-0.0048919274
188	0xbd33f6e6	-0.043936633
189	0xbe168160	-0.1469779
190	0xbcd0e326	-0.025498938
191	0xbda69bcc	-0.08135185
192	0xbddba464	-0.107247144
193	0xbda447ed	-0.08021531
194	0x3daf46e4	0.08558443
195	0x3d95a0c2	0.07306053
196	0x3d5b1a81	0.053492073
197	0x3e078dac	0.13237637
198	0x3cf2c450	0.029634625
199	0xbd66ab56	-0.056315742
200	0x3dbf8968	0.0935238
201	0x3e1bc026	0.15210018
202	0x3c39db71	0.011343823
203	0x3dddf24d	0.10837231
204	0x3cf761eb	0.030198058
205	0x3d95e432	0.073189154
206	0x3dfdf7af	0.124007575
207	0x3cb1431d	0.021638447
208	0x3e19209d	0.14953847
209	0xbd9eb62f	-0.077495925
210	0x3c9cdb75	0.019147614
211	0x3bf11594	0.0073573086
212	0x3df7e0a6	0.12103395
213	0x3e022393	0.12708883
214	0x3c6aa1e0	0.014320821
215	0x3c16dd46	0.009208029
216	0xbd234c2c	-0.039867565
217	0xbd83dc6e	-0.06438528
218	0xbc5c8be9	-0.013461092
219	0x3e0c371e	0.136929
220	0x3e2fdd1c	0.1717419
221	0x3dec7cdd	0.11547253
222	0x3e70a61c	0.23500866
223	0x3e48cf2f	0.19610284
224	0x3e0acac6	0.13553914
225	0xbdb4cad6	-0.088277504
226	0xbd96aff9	-0.07357783
227	0xbe15b4f1	-0.14619805
228	0x3cc3f552	0.023920689
229	0xbb04f99b	-0.0020290378
230	0x3d52b6fe	0.051444046
231	0xbdae66c9	-0.085156985
232	0x3d898996	0.067156956
233	0xbb6eea57	-0.0036455595
234	0xbc87e6c5	-0.016589532
235	0x3de98847	0.11402946
236	0x3e10c287	0.14136706
237	0x3dfb6a2f	0.12276112
238	0x3e15f875	0.1464556
239	0x3d5f4913	0.05451305
240	0x3e63758d	0.22212811
241	0x3d5e6213	0.05429275
242	0x3e69d4be	0.22835061
243	0x3e54d498	0.20784223
244	0x3e65f188	0.22455418
245	0x3d4ad4d7	0.049519386
246	0x3ddfbeaf	0.10925042
247	0x3e4bdd0b	0.1990854
248	0x3e57d94a	0.21078983
249	0x3db0d2f6	0.086339876
250	0xbc805957	-0.0156676
251	0x3cf81faa	0.030288536
252	0x3d1bd9da	0.038049556
253	0xbd976446	-0.073921725
254	0xbd749340	-0.05971074
255	0xbe25a1d7	-0.16175018

conv1.bias f4 [6]
0	0xbe7708cb	-0.24124448
1	0x3bb0808f	0.005386419
2	0x3de30ae8	0.110860646
3	0xbcd414d4	-0.025888838
4	0xbcc1de6f	-0.023665635
5	0xbdae2f92	-0.08505167

conv2.weight f4 [16, 6, 5, 5]
0	0x3d840332	0.06445922
1	0x3e06e9dd	0.1317515
2	0xbd43bce7	-0.047787573
3	0xbdf67e24	-0.12035778
4	0xbe1724b0	-0.14760089
5	0x3df79479	0.12088866
6	0x3d9830a5	0.07431153
7	0xbcdcb19c	-0.02694016
8	0xbda11b61	-0.0786655
9	0xbd7a39f2	-0.061090417
10	0x3ddac9b7	0.10683005
11	0xbdbc75e0	-0.0920217
12	0xbe650c37	-0.22367941
13	0xbe544c39	-0.20732202
14	0x3cad790c	0.021175884
15	0xbd6f6573	-0.05844636
16	0xbe74865e	-0.23879382
17	0xbe4e78b8	-0.20163238
18	0xbe3c4bf9	-0.18388356
19	0x3e0e7abd	0.13914008
20	0xbd66b494	-0.056324556
21	0xbd742618	-0.05960664
22	0x3c43169d	0.011907247
23	0x3e233c08	0.15940869
24	0x3e6a5c5b	0.22886793
25	0xbdb60ec0	-0.08889532
26	0xbe5b7533	-0.21431427
27	0xbe52f83d	-0.20602508
28	0xbe34aff8	-0.17645252
29	0xbe27315b	-0.16327421
30	0xbcd7f6d5	-0.026362816
31	0x3d0eba97	0.034845915
32	0x3d71b199	0.05900726
33	0xbc8ef693	-0.01745156
34	0x3ddf4b11	0.1090299
35	0x3d869f89	0.06573398
36	0x3de06951	0.109575875
37	0x3d9b1b76	0.07573597
38	0x3d92ff47	0.071775965
39	0x3db90d59	0.09035749
40	0x3df306d9	0.118665405
41	0x3df1eb8e	0.118125066
42	0x3dadaa7a	0.084797814
43	0x3dbd030a	0.09229095
44	0x3cec5f87	0.028854145
45	0x3d910a5a	0.070820525
46	0x3cc575a3	0.024103945
47	0x3b6b60bc	0.0035915812
48	0xbd4613a3	-0.04835857
49	0x3d504da0	0.05085528
50	0x3cd66515	0.026171247
51	0x3d121d1a	0.035672285
52	0xbda65e43	-0.08123448
53	0xbd1dedc2	-0.03855682
54	0x3d17c4fd	0.037053097
55	0xbc8b981d	-0.017040307
56	0xbc96045a	-0.018312622
57	0x3dc62220	0.096744776
58	0x3d426ef7	0.047469106
59	0x3dadef7b	0.08492943
60	0xbe813446	-0.25235194
61	0xbd589e73	-0.052885484
62	0xbbe3d06c	-0.006952336
63	0x3d4ff697	0.050772276
64	0x3e06f950	0.13181043
65	0xbe33a539	-0.17543496
66	0x3d0463ac	0.032321617
67	0x3d0719bd	0.03298353
68	0x3dd65316	0.10465066
69	0x3e38e47f	0.18055914
70	0xbc8c225f	-0.017106233
71	0x3d2853a2	0.041095383
72	0x3da1f183	0.07907393
73	0x3cd02c4a	0.025411744
74	0x3e8ed9e5	0.27900615
75	0x3d849500	0.06473732
76	0x3dbff632	0.0937313
77	0x3e927d47	0.28611204
78	0x3e80df42	0.25170332
79	0x3e4bd380	0.199049
80	0x3d17e3ca	0.03708247
81	0x3dce46f8	0.1007213
82	0x3e62ea0b	0.22159593
83	0x3cc4f5aa	0.024042923
84	0xbbc1e69a	-0.0059173824
85	0x3d5c9392	0.05385167
86	0x3da4a208	0.080387175
87	0x3d2bcf45	0.041945715
88	0xbe4b70d3	-0.19867258
89	0xbe99cdb4	-0.30039752
90	0x3d2624ad	0.04056232
91	0xbce45e97	-0.027877135
92	0xbe3098b7	-0.17245756
93	0xbe325f0d	-0.17419071
94	0xbe354bf3	-0.17704754
95	0xbde9e638	-0.11420864
96	0xbddba7c5	-0.10725359
97	0xbd57eaac	-0.052714035
98	0xbd8c26ac	-0.068433136
99	0xbc8a1f46	-0.016860615
100	0xbd38c554	-0.04511006
101	0xbe12e0db	-0.14343588
102	0xbcc2ddb2	-0.023787353
103	0x3e1f59ba	0.15561572
104	0x3e099457	0.13435493
105	0xbe9ca4fe	-0.3059463
106	0xbdd0a30c	-0.10187349
107	0x3dfe61de	0.124210104
108	0x3e76861f	0.240746
109	0x3c33719e	0.010952381
110	0xbe1a15c1	-0.15047361
111	0x3e2d8971	0.16946961
112	0x3e3bf31a	0.18354455
113	0x3ddf230b	0.10895356
114	0xbd655e5d	-0.055998195
115	0x3cb3e17a	0.021958102
116	0x3d8fd264	0.07022551
117	0xbd885b71	-0.06658066
118	0xbe294afa	-0.16532508
119	0xbd11c8c0	-0.03559184
120	0x3d4608ae	0.04834812
121	0xbe0cbccb	-0.13743894
122	0xbe09c87b	-0.13455383
123	0xbdade4ab	-0.084908806
124	0x3dc2ca58	0.0951125
125	0x3de5716a	0.11203273
126	0x3e0a8a4a	0.13529316
127	0x3e3be195	0.18347771
128	0x3d6d34b0	0.057911575
129	0xbd614974	-0.05500169
130	0x3e49d782	0.19711116
131	0x3e5ce519	0.21571769
132	0x3e44f823	0.19235282
133	0xbca7364f	-0.020411639
134	0xbe066798	-0.13125455
135	0x3e25350c	0.16133517
136	0x3e352688	0.1769048
137	0xbd9a9b2a	-0.075491264
138	0xbe76b491	-0.24092318
139	0xbe327cd1	-0.17430426
140	0x3e10c4f4	0.14137632
141	0xbddc9d7d	-0.10772226
142	0xbe955358	-0.2916515
143	0xbe8c539b	-0.27407536
144	0xbdeeae96	-0.116543934
145	0xbc99874e	-0.018741276
146	0xbe32a591	-0.17445971
147	0xbe2a0573	-0.16603641
148	0xbdfc05e3	-0.1230581
149	0x3d383075	0.044968087
150	0xbda42921	-0.08015657
151	0xbd339d09	-0.043850932
152	0xbd904072	-0.07043542
153	0xbe0c414b	-0.13696782
154	0xbcf11767	-0.029430104
155	0xbd56f008	-0.052475005
156	0xbb0ed10b	-0.002179208
157	0xbda0f834	-0.07859841
158	0xbcefb2fb	-0.02926015
159	0x3c7367f0	0.014856324
160	0xbd67bb3f	-0.056575056
161	0xbd643683	-0.05571605
162	0x3e0aed17	0.13567005
163	0x3d5bd464	0.05366935
164	0x3b6662df	0.0035154147
165	0xbdc06dfa	-0.09395976
166	0xbe27a6b1	-0.16372181
167	0x3d3ee479	0.046604607
168	0x3e07b10f	0.13251136
169	0x3deca46d	0.11554799
170	0x3e475f92	0.19470051
171	0x3d3b02a6	0.045656823
172	0xbde797eb	-0.11308273
173	0x3dc23630	0.09482992
174	0x3e936389	0.28786877
175	0xbe53d5ec	-0.20687073
176	0x3d111d94	0.0354286
177	0x3df3c0e8	0.11902028
178	0x3d325985	0.043542404
179	0x3dc9a1a7	0.09845286
180	0xbe4c2dd4	-0.19939357
181	0xbe503353	-0.20332079
182	0x3e6807c5	0.22659214
183	0x3e5cde1c	0.21569103
184	0xbd296619	-0.041357134
185	0x3de2bf25	0.11071614
186	0xbe43f5e0	-0.19136763
187	0xbebb5bdd	-0.36593524
188	0x3ddf4831	0.10902441
189	0x3de6c70a	0.112684324
190	0x3dd921d9	0.10602159
191	0x3e8355cb	0.25651392
192	0xbe76aa66	-0.2408844
193	0xbf1bdac8	-0.6088071
194	0xbe31e079	-0.17370786
195	0xbd6b1361	-0.057391528
196	0xbd85c510	-0.06531727
197	0x3e451f81	0.19250299
198	0xbceb4b49	-0.028722422
199	0xbe910aca	-0.28328544
200	0x3e11c5cb	0.14235608
201	0xbdf25338	-0.11832279
202	0xbe1255b5	-0.14290507
203	0xbe4c7a08	-0.19968426
204	0xbe506dfb	-0.20354454
205	0x3e0850e8	0.13312113
206	0xbc54729f	-0.012966781
207	0x3d66b98b	0.05632929
208	0xbd9c4ea3	-0.07632186
209	0xbe3386c3	-0.17531876
210	0x3e2a3fac	0.16625851
211	0xbe3860c9	-0.1800567
212	0xbe20d324	-0.15705544
213	0x3b9e518b	0.004831498
214	0xbde85e57	-0.11346119
215	0x3e6e6f0a	0.23284546
216	0x3d9a07f9	0.07521052
217	0xbdc83eeb	-0.09777626
218	0xbd2f4bc6	-0.042796873
219	0xbe8c863e	-0.2744617
220	0x3ec8f244	0.39247334
221	0x3e309297	0.1724342
222	0x3e5a1b92	0.2129958
223	0x3cd3a29c	0.025834374
224	0xbe906ce2	-0.2820807
225	0xbdc5e775	-0.096632876
226	0xbc519978	-0.012792937
227	0xbc4d9468	-0.01254759
228	0x3a6fba53	0.0009144891
229	0x3e69ce22	0.2283254
230	0xbe245c98	-0.16050947
231	0x3d3cfa36	0.046137057
232	0x3d9a98bb	0.07548662
233	0x3c73b106	0.014873749
234	0x3e124420	0.142838
235	0xbe6fe408	-0.23426831
236	0xbe822e92	-0.25426155
237	0x3dedbb2a	0.11607964
238	0x3dbdd9d5	0.09270064
239	0x3de05fcf	0.10955774
240	0xbcde1204	-0.0271082
241	0xbe4f5fe4	-0.20251423
242	0xbe879f21	-0.26488593
243	0x3dd86ab3	0.10567226
244	0x3e04ebe3	0.12980609
245	0xbe0fb66b	-0.1403443
246	0x3dce709d	0.10080073
247	0xbdcc954f	-0.09989416
248	0xba763cb6	-0.0009393202
249	0x3e5a0ca9	0.21293892
250	0x3dd4f008	0.10397345
251	0xbd4fac91	-0.05070168
252	0x3dfb69e3	0.12276056
253	0x3e2d2b06	0.16910943
254	0x3d55f345	0.052233953
255	0x3e44cfc6	0.19219884

conv2.bias f4 [16]
0	0x3c542ed9	0.0129506225
1	0xbdb439e4	-0.08800104
2	0x3e0d1a5d	0.13779588
3	0x3dbb0bf9	0.09133143
4	0x3edd243d	0.4319171
5	0x3e314a9c	0.17313617
6	0x3d91b3d4	0.071143776
7	0xbd2f7358	-0.04283461
8	0x3eb81ff0	0.35961866
9	0xbc8a20a9	-0.016861277
10	0x3d520d29	0.05128208
11	0x3e773abc	0.24143499
12	0xbe395743	-0.18099694
13	0x3cf5870e	0.029971626
14	0xbd58b335	-0.05290528
15	0x3e3af789	0.1825849

fc1.weight f4 [256, 400]
0	0xbea3d6a3	-0.31999692
1	0xbe64c8d9	-0.22342242
2	0xbdcb0723	-0.099134706
3	0x3d8e88f4	0.069597155
4	0x3da258b3	0.07927074
5	0xbddd03a6	-0.107917115
6	0xbd9c2a34	-0.07625237
7	0xbe0eab78	-0.13932598
8	0x3d430f96	0.047622286
9	0x3e146e3b	0.14495175
10	0xbdbb6028	-0.091492
11	0x39e5c17a	0.00043822435
12	0xbd06db37	-0.032923903
13	0x3d3052ed	0.043047834
14	0x3d0b0745	0.03394248
15	0xbdfa47b4	-0.122207075
16	0xbdf293bd	-0.11844585
17	0xbe22accc	-0.1588623
18	0xbe865e61	-0.2624388
19	0xbea43a76	-0.32075852
20	0xbe98e751	-0.2986398
21	0xbe9c7f02	-0.3056565
22	0xbeacdc28	-0.33761716
23	0xbf32780b	-0.6971442
24	0xbf6886d7	-0.9083075
25	0x3ccb2916	0.024799865
26	0x3d08a22d	0.033357788
27	0x3dd0f7ad	0.102034904
28	0xbdb29729	-0.08720238
29	0xbddedc13	-0.108818196
30	0x3c60fea5	0.013732587
31	0x3d9f488a	0.077775076
32	0x3c6b3436	0.01435571
33	0xbd0a7390	-0.033801615
34	0x3db2fb95	0.08739392
35	0xbdaf4152	-0.08557381
36	0xbd5bbfc3	-0.053649675
37	0xbdaffb50	-0.08592856
38	0x3db2ea46	0.0873609
39	0x3e34f874	0.17672902
40	0xbeb05f83	-0.3444787
41	0xbe059dbb	-0.1304845
42	0xbd6ff0bb	-0.058579188
43	0x3d5d581f	0.054039117
44	0x3d76d42c	0.060260937
45	0xbe984e8f	-0.29747435
46	0xbe4f1a49	-0.2022487
47	0xbdbe5921	-0.09294344
48	0x3d7a1768	0.06105748
49	0x3e1ab729	0.15108933
50	0x3d8a5ddc	0.067561835
51	0xbc0c0356	-0.008545717
52	0x3c341ac3	0.010992709
53	0x3dc5a55d	0.09650681
54	0x3ccc1b42	0.024915341
55	0x3c512890	0.0127660185
56	0xbb763b79	-0.003757207
57	0x3db2f5ca	0.08738287
58	0x3dd0b28e	0.101903066
59	0x3d700c4e	0.058605485
60	0xbdd2fe7a	-0.10302444
61	0xbd999e0b	-0.075008474
62	0xbe49750c	-0.19673556
63	0xbd96828f	-0.07349121
64	0x3e124c77	0.14286982
65	0x3e142545	0.14467342
66	0xbd6a9dad	-0.057279278
67	0xbe79552a	-0.24348894
68	0xbcc0c6eb	-0.023532351
69	0x3e89ad38	0.26889968
70	0xbd223444	-0.039600626
71	0xbe555d78	-0.20836437
72	0xbe658b8f	-0.22416519
73	0xbd881503	-0.06644633
74	0x3e3043b7	0.17213331
75	0xbe0d6134	-0.13806611
76	0xbd330e40	-0.04371476
77	0x3d3d6147	0.04623535
78	0x3c2bd33b	0.010487373
79	0x3d6d2474	0.057896093
80	0xbe248449	-0.16066088
81	0xbe011d9c	-0.12608951
82	0x3d1a3042	0.03764368
83	0xbd8710e0	-0.065950155
84	0x3dc71e54	0.097225815
85	0x3c181836	0.009283116
86	0xbe655f86	-0.2239972
87	0xbe3011c8	-0.17194283
88	0xbdb15f9f	-0.086608164
89	0x3c34333e	0.010998545
90	0x3de27a63	0.110585
91	0xbdac8f55	-0.08425776
92	0x3c84ac35	0.016195396
93	0x3c7b754d	0.015347791
94	0x3e057285	0.13031967
95	0x3e34d022	0.17657521
96	0xbce36236	-0.027756792
97	0xbd156bfe	-0.036479943
98	0x3dbbc3c3	0.09168198
99	0x3e1f083c	0.15530485
100	0xbe5acda5	-0.2136751
101	0xbdf3bbe1	-0.119010694
102	0xbc354cb8	-0.011065654
103	0x3d521aa3	0.051294934
104	0xbe56f232	-0.20990828
105	0xbc68c468	-0.014206983
106	0x3ceec0b3	0.02914462
107	0x3d013583	0.031545173
108	0xbd6f3c21	-0.058406953
109	0xbcf75780	-0.03019309
110	0x3d08ad8d	0.033368636
111	0xbd53aece	-0.05168038
112	0xbe763c61	-0.2404647
113	0xbe1d8609	-0.15383162
114	0xbc604b65	-0.01368985
115	0x3eae52bd	0.340475
116	0x3dfb8b92	0.1228248
117	0x3d847faa	0.064696625
118	0x3d2c8ed5	0.042128403
119	0x3e7249fd	0.23661037
120	0x3cd0e9ce	0.025502112
121	0x3deb7428	0.114967644
122	0x3d6c0a19	0.057626817
123	0x3d53669d	0.05161153
124	0x3e0c13aa	0.13679376
125	0xbe184295	-0.14869149
126	0xbda2b272	-0.07944192
127	0xbe521ac3	-0.20518021
128	0xbe524b50	-0.20536542
129	0xbe77a156	-0.24182639
130	0x3d4983be	0.049197905
131	0x3de37609	0.11106498
132	0xbdd51dd4	-0.1040608
133	0xbd8ec931	-0.06971968
134	0xbe7c53f6	-0.24641404
135	0x3c1bfa84	0.009520177
136	0x3d982304	0.07428554
137	0x3dca0d76	0.09865849
138	0xbdc1cc2a	-0.09462769
139	0xbdb1c923	-0.08680942
140	0x3d5bb70f	0.053641375
141	0x3e387089	0.18011679
142	0x3d743b40	0.059626818
143	0x3d8991f9	0.06717295
144	0x3d682916	0.056679808
145	0xbe15086e	-0.14553997
146	0x3cb15f19	0.021651791
147	0xbcf75986	-0.030194055
148	0xbe0caaea	-0.13737074
149	0x3d76ec99	0.06028423
150	0x3d449138	0.047990054
151	0x3e03e62d	0.12880774
152	0x3d9fdd64	0.07805899
153	0x3d3031ba	0.043016173
154	0x3e44496c	0.19168633
155	0xbe45af6a	-0.19305196
156	0x3e15f506	0.1464425
157	0x3da78fc9	0.08181722
158	0x3da64a17	0.081196
159	0xbe5c1054	-0.21490604
160	0xbe7ad31a	-0.24494591
161	0xbd4dcdf5	-0.050245244
162	0xbc44e4a8	-0.0120174065
163	0x3d1cc512	0.03827388
164	0xbebffcfd	-0.37497702
165	0xbdb699bf	-0.089160435
166	0xbcaf3738	-0.021388635
167	0x3cf1d4ee	0.029520478
168	0x3d291e8e	0.041288905
169	0xbe26cbe8	-0.16288722
170	0xbea77218	-0.32704234
171	0xbea2fb84	-0.31832516
172	0xbe538f83	-0.20660214
173	0xbdf63ff9	-0.120239206
174	0xbe25a69c	-0.16176838
175	0x3d4e9e03	0.05044366
176	0xbe0afb95	-0.13572533
177	0xbe128ca2	-0.1431146
178	0x3d5a0cd2	0.053234883
179	0x3e36ed33	0.17863922
180	0xbcd9f2ab	-0.02660497
181	0xbe05a07d	-0.13049503
182	0xbdb79182	-0.089633
183	0x3cc7baff	0.024381159
184	0x3e390e39	0.18071832
185	0xbdf3c2f5	-0.119024195
186	0xbcfe5342	-0.03104556
187	0xbdfa534b	-0.12222918
188	0x3d5e8045	0.054321546
189	0x39d4e7ff	0.00040608642
190	0xbde8f67b	-0.113751374
191	0xbd88651c	-0.0665991
192	0xbd6fbd0e	-0.058529906
193	0x3d2e3cbd	0.042538393
194	0x3b8104cb	0.003937339
195	0x3cccd326	0.025003027
196	0x3db92f95	0.09042279
197	0x3cfe8bbb	0.031072488
198	0x3e24b12d	0.16083212
199	0x3d82002f	0.06347691
200	0xbd94ab14	-0.07259193
201	0x3c644f4b	0.013934921
202	0xbd8b7f31	-0.06811369
203	0xbe32a995	-0.17447503
204	0xbded9ec9	-0.116025515
205	0x3d9da8ee	0.076982364
206	0x3d58b8c1	0.05291057
207	0xbd69fb7c	-0.0571246
208	0xbd818a7e	-0.063252434
209	0x3d9171c0	0.07101774
210	0x3dbe2b6b	0.09285625
211	0xbd2afa72	-0.04174275
212	0xbde310ec	-0.11087212
213	0xbd6916c6	-0.056906484
214	0x3dbebed2	0.0931374
215	0x3dead5c0	0.11466551
216	0x3e0b5cf2	0.13609675
217	0x3db050f9	0.08609194
218	0x3df35220	0.118808985
219	0x3e02f44a	0.12788501
220	0x3e2d769c	0.16939777
221	0x3e1b37d2	0.15158013
222	0x3dc73094	0.097260624
223	0xbbafad52	-0.0053612376
224	0x3d1ced6c	0.03831236
225	0x3e63a963	0.22232585
226	0x3e03efbd	0.12884422
227	0x3d72d1a8	0.059281975
228	0x3cfb5226	0.03067882
229	0x3e0beb99	0.13664092
230	0xbd5ada78	-0.053431004
231	0x3d2a9540	0.041646242
232	0x3d15a968	0.03653851
233	0x3d893d72	0.06701173
234	0xbda1c96d	-0.07899747
235	0x3ce2d913	0.0276914
236	0xbc4dd486	-0.012562877
237	0x3d55931f	0.05214226
238	0x3d5fe31a	0.05465994
239	0xbd97ff1c	-0.07421705
240	0xbb314e90	-0.0027054884
241	0xbd2bcb9b	-0.04194222
242	0xbb5c32b2	-0.0033599553
243	0xbdd1ecba	-0.1025023
244	0xbde5b8dc	-0.112169
245	0x3e331c29	0.17491211
246	0xbd9975f7	-0.07493203
247	0xbe1a1b17	-0.15049396
248	0xbde30a96	-0.110860035
249	0x3e45f92e	0.19333336
250	0xbd96986d	-0.07353292
251	0xbc332c7c	-0.010935899
252	0x3c9a6c3c	0.018850438
253	0xbe1572a2	-0.1459451
254	0xbc8c1fdd	-0.017105037
255	0x3d3920fa	0.045197465

fc1.bias f4 [256]
0	0x3e01b7d8	0.12667787
1	0x39b64af5	0.00034769592
2	0x3ea9000b	0.33007845
3	0xbceaab99	-0.028646277
4	0x3df25d9b	0.1183426
5	0xbc2ca911	-0.010538355
6	0xbd8ae998	-0.06782836
7	0x3c4ea3d8	0.012612306
8	0x3f16c370	0.58891964
9	0xbc7ae53d	-0.015313444
10	0x3e6e4b33	0.23270874
11	0xbb4906a1	-0.0030674117
12	0xbea477fa	-0.32122785
13	0xbcaf2994	-0.02138213
14	0x3eb84cde	0.35996145
15	0xbcfd7e5a	-0.030944038
16	0xbcd2282f	-0.025653927
17	0xbcbd7040	-0.023124814
18	0x3ba101af	0.004913531
19	0x3e3dac53	0.18522768
20	0xbcdc785b	-0.026912859
21	0xbd409297	-0.0470148
22	0x3e95388e	0.2914471
23	0x3d8e852f	0.069589965
24	0x3ebe2dc4	0.3714429
25	0xbd2f99eb	-0.042871397
26	0x3d49be0a	0.0492535
27	0xbd0515a2	-0.032491334
28	0xbd010f20	-0.031508565
29	0x3d5b6b6d	0.053569246
30	0x3e4998e7	0.19687234
31	0xbd8c58df	-0.06852888
32	0xbd231ac3	-0.039820444
33	0x3eb8c43c	0.36087215
34	0xbd73a965	-0.05948772
35	0x3e8ccdc9	0.27500752
36	0xbd1f8a29	-0.03895012
37	0xbc8b04e4	-0.016970105
38	0x3e3a77e5	0.18209799
39	0x3c385e06	0.011252886
40	0x3e563872	0.2091997
41	0xbe1f6674	-0.15566427
42	0x3ecaf336	0.3963868
43	0xbcda986a	-0.026684005
44	0xbd6c7792	-0.05773122
45	0x3e7df9d1	0.24802329
46	0x3e5b43a7	0.21412526
47	0xbc9512e2	-0.01819748
48	0x3b0c8065	0.0021438834
49	0xbd8841a8	-0.06653148
50	0xbd7cfbdd	-0.061763633
51	0x3d0616d0	0.0327366
52	0xbdf6fbde	-0.120597586
53	0x3c9a816e	0.018860545
54	0x3e52ee33	0.20598678
55	0xbd47ab54	-0.048747376
56	0xbc75a2c7	-0.014992422
57	0xbe35e358	-0.17762506
58	0xbda76236	-0.08173029
59	0x3bcf290f	0.0063220332
60	0xbcae1c55	-0.021253744
61	0x3ed1fa62	0.4101134
62	0xbd98919e	-0.07449649
63	0xbcf79632	-0.030222986
64	0x3e3f2db1	0.18669774
65	0xbd62fa84	-0.05541469
66	0x3bb137aa	0.005408247
67	0xbe33b34e	-0.17548868
68	0xbce2fdd9	-0.027708935
69	0x3eb7d5f5	0.35905424
70	0x3efa2b25	0.48861042
71	0xbcf766dc	-0.030200414
72	0x3e8889a9	0.26667526
73	0x3e8c72ee	0.27431434
74	0xbd69cf1f	-0.05708229
75	0xbd520bf4	-0.05128093
76	0xbcea443f	-0.028596995
77	0x3e97fa42	0.2968312
78	0x3e3454e7	0.17610513
79	0xbd38638f	-0.04501682
80	0xbcbb7275	-0.022881726
81	0x3d537131	0.05162162
82	0xbbe4f66d	-0.006987384
83	0xbd79641f	-0.0608865
84	0xbaad920c	-0.0013242378
85	0xbd9662b3	-0.07343044
86	0xbc887416	-0.016656917
87	0xbd48e315	-0.049044687
88	0xbdef6d81	-0.11690808
89	0x3b672d1f	0.0035274697
90	0x3ee3f813	0.44525203
91	0x3c2518e3	0.010076734
92	0x3afa66a5	0.0019104077
93	0x3c207ff3	0.0097961305
94	0x3e6ee0a6	0.23327884
95	0xbe55300e	-0.20819113
96	0xbd7752ab	-0.060381573
97	0x3e8867ea	0.2664178
98	0xbd8025e5	-0.06257228
99	0x3eb5805c	0.35449493
100	0x3df6efbf	0.12057447
101	0x3df9f637	0.12205165
102	0xbd4763eb	-0.048679274
103	0x3eb397d1	0.35076764
104	0x3cb41297	0.02198152
105	0xbd757275	-0.059923608
106	0xbe995450	-0.29947138
107	0xbd360e6f	-0.04444736
108	0xbc316363	-0.010826918
109	0x3dc03477	0.09385007
110	0x3f0ba688	0.5455098
111	0xbd38bb5c	-0.045100555
112	0x3e6e59f7	0.23276506
113	0x3c1f05e7	0.009705997
114	0x3e919be1	0.2843924
115	0x3e5e1606	0.21688089
116	0x3e34f5c1	0.17671873
117	0xbd545af5	-0.051844556
118	0x3e458885	0.1929036
119	0x3f08e6b2	0.53477013
120	0x3e8b0666	0.2715332
121	0x3ea96d16	0.33091038
122	0x3b8cbea7	0.0042951885
123	0xbd67829a	-0.056521036
124	0xbd284ed0	-0.041090786
125	0xbd770bb0	-0.06031388
126	0xbd1b56e7	-0.037924673
127	0xbd09d767	-0.03365269
128	0x3ed7b2ca	0.42128593
129	0xbdac9835	-0.08427469
130	0xbc803b70	-0.015653342
131	0xbd22e128	-0.039765507
132	0x3e75df73	0.2401102
133	0x3e7ef20e	0.24897024
134	0xbc777a07	-0.015104777
135	0x3d5ca664	0.05386962
136	0x3e58a54f	0.2115681
137	0x3de92b83	0.11385252
138	0x3e82b6ff	0.2553024
139	0xbd3fa19d	-0.046784986
140	0xbc996ae7	-0.018727733
141	0x3befa43f	0.007313281
142	0x3ec5c86b	0.3862947
143	0xbd5fae21	-0.05460942
144	0xbd963d77	-0.07335942
145	0xbd582098	-0.05276546
146	0x3e32e67b	0.17470734
147	0xbd24cf3a	-0.04023669
148	0xbc3e2e23	-0.01160768
149	0x3eb50333	0.35354003
150	0xbd7390e2	-0.059464343
151	0x3cfbf897	0.030758185
152	0xbe66a405	-0.22523506
153	0x3dc2d5cb	0.09513434
154	0x3de69365	0.11258582
155	0x3e76f390	0.24116349
156	0xbe35c48e	-0.17750761
157	0x3e7bd03c	0.24591154
158	0xbd12fe37	-0.03588697
159	0x3ea70849	0.3262351
160	0x3df9176d	0.12162671
161	0xbeb5f44f	-0.35537955
162	0xbd42b437	-0.047535148
163	0x3b1f4603	0.0024303205
164	0x3e8a4223	0.27003583
165	0x3e15fda8	0.14647543
166	0x3d95a1c2	0.073062435
167	0xbcc838df	-0.02444118
168	0xbcb9156e	-0.022593226
169	0x3e1744e8	0.1477238
170	0xbcffc3b5	-0.03122125
171	0x3d38907f	0.045059677
172	0xbd4c65e8	-0.049901873
173	0x3cdab145	0.026695857
174	0xbd699948	-0.057030946
175	0x3ecc528d	0.3990673
176	0x3cb838c3	0.022488004
177	0xbb5aa7cd	-0.0033364177
178	0xbdacb5ea	-0.08433135
179	0xbe080e14	-0.1328662
180	0x3ee28c17	0.44247505
181	0x3cacb587	0.021082653
182	0x3f0b3d85	0.54390746
183	0x3f201a70	0.6254034
184	0x3d164cf4	0.036694482
185	0xbd942abb	-0.07234713
186	0xbc043130	-0.008068368
187	0xbd215bdc	-0.039394245
188	0x3ca83469	0.020532804
189	0x3ee3166b	0.4435304
190	0xbe4993e7	-0.19685327
191	0xbc2fffd2	-0.010742145
192	0x3e9912bb	0.29897103
193	0xbd2fbbf9	-0.042903874
194	0x3ec068ab	0.37579855
195	0x3ed2d0b3	0.4117485
196	0x3bc53d62	0.0060192803
197	0xbc427892	-0.0118695665
198	0xbd350323	-0.044192445
199	0xbcbd1d16	-0.023085158
200	0x3e10b15b	0.14130156
201	0xbd08c7d7	-0.033393707
202	0x3ec311dd	0.38099566
203	0xbd1b95cc	-0.037984654
204	0x3e9ffc96	0.31247395
205	0x3c1386ef	0.009004339
206	0xbe89735f	-0.26845834
207	0xbd256148	-0.040375978
208	0x3e8a9e95	0.27074113
209	0xbe2d16e7	-0.16903268
210	0x3e9a661f	0.30156037
211	0xbccf4485	-0.025301227
212	0xbcc22256	-0.023698013
213	0x3f0dc46f	0.5537786
214	0x3b692438	0.0035574567
215	0xbd104108	-0.03521827
216	0xbd73b53e	-0.059499018
217	0x3c826f73	0.015922284
218	0xbda50a28	-0.08058578
219	0xbb380e1e	-0.0028084586
220	0xbd5c06cc	-0.05371742
221	0xbd70cf63	-0.05879153
222	0x3dbabdd9	0.09118242
223	0xbda0030b	-0.078130804
224	0xbc69cf02	-0.014270546
225	0x3deb0566	0.11475639
226	0xbd18acbb	-0.037274104
227	0xbd3f7236	-0.04673978
228	0x3e35daf6	0.17759308
229	0x3bf493b3	0.007463896
230	0x3eef05da	0.46684152
231	0xbccc7ffc	-0.024963371
232	0x3d1f45ed	0.038885046
233	0x3c9c46cc	0.019076727
234	0x3e28f57d	0.16499896
235	0xbd17e722	-0.03708566
236	0xbd5a8e11	-0.05335814
237	0xbcce9f63	-0.025222486
238	0xbd67fcce	-0.056637578
239	0x3d968158	0.07348889
240	0x3e6e421f	0.2326741
241	0x3e5d8afd	0.21635051
242	0xbd9c8e08	-0.07644278
243	0x3e35351e	0.17696044
244	0xbc0575b8	-0.008145742
245	0x3eafc2e3	0.34328374
246	0xbd78e229	-0.060762558
247	0x38acc491	8.2382125e-05
248	0x3a61f75b	0.00086199277
249	0x3f00ce0a	0.5031439
250	0x3eed1607	0.46305868
251	0x3e97110f	0.29505202
252	0x3e7e4899	0.24832381
253	0xbcf99940	-0.030468583
254	0xbcf7d882	-0.030254606
255	0x3e55cedf	0.20879696

fc2.weight f4 [10, 256]
0	0x3e056c0a	0.13029495
1	0x3dc83fb3	0.09777775
2	0xbc4bd579	-0.012441033
3	0xbd3eff1d	-0.046630014
4	0xbe46393f	-0.19357775
5	0xbbc4a604	-0.006001236
6	0xbbc1f8fc	-0.005919574
7	0xbcd990e7	-0.026558353
8	0xbe54ff0e	-0.2080042
9	0xbd68d000	-0.05683899
10	0xbe13ffed	-0.14453097
11	0xbe1d7b54	-0.15379077
12	0x3db86f4d	0.09005604
13	0xbbeb488d	-0.0071802796
14	0x3d5f9260	0.054582953
15	0x3cf49201	0.029854776
16	0xbc8b8f26	-0.017036032
17	0xbc310938	-0.010805421
18	0xbcc93dc7	-0.02456559
19	0xbe115295	-0.14191659
20	0x3c7f4fde	0.015583007
21	0xbd351aa8	-0.044214875
22	0x3cbc25ec	0.022967301
23	0xbd89c323	-0.067266725
24	0xbd212ebf	-0.03935122
25	0x3d215370	0.039386213
26	0x3d79effe	0.06101989
27	0x3c605154	0.013691265
28	0xbd5c7afa	-0.053828217
29	0x3e3b2cee	0.18278858
30	0xbd39237d	-0.04519986
31	0x3d39be91	0.045347754
32	0xbd3e9e38	-0.046537608
33	0xbe91e33e	-0.28493685
34	0x3cc3b7d9	0.023891376
35	0x3ddc6c05	0.107627906
36	0xbd42e613	-0.047582697
37	0xbd4da186	-0.05020287
38	0x3dac543b	0.08414503
39	0x3d992e87	0.074795775
40	0xbd7ed980	-0.062219143
41	0x3ddb20c5	0.1069961
42	0x3dc9cce9	0.09853537
43	0x3e4cb47d	0.19990726
44	0x3cf72e83	0.030173546
45	0xbe83a4d8	-0.25711703
46	0x3d4a5076	0.04939314
47	0xbae74024	-0.0017643017
48	0x3ce6c551	0.02817026
49	0xbdeb7a0d	-0.11497889
50	0xbc508a11	-0.01272823
51	0xbe49ef74	-0.1972025
52	0x3d81064b	0.063000284
53	0x3c9a3bf6	0.01882742
54	0x3de23e92	0.110470906
55	0xbbb8012d	-0.0056153745
56	0x3cf9afe9	0.030479388
57	0x3de5ac93	0.112145565
58	0xbc96bbfe	-0.018400189
59	0xbd27a53a	-0.040929057
60	0xbd2b88e8	-0.04187861
61	0xbe91cb00	-0.2847519
62	0xbcd6e54f	-0.02623239
63	0xbd81b48e	-0.06333266
64	0xbe29a458	-0.16566598
65	0x3d1f7597	0.0389305
66	0xbd5e4c8a	-0.054272212
67	0xbbf36fb0	-0.0074290857
68	0xbcc63842	-0.024196748
69	0x3ddc48fc	0.10756108
70	0xbe938d6c	-0.28818834
71	0x3d3233b5	0.043506343
72	0xbe4e0254	-0.20118076
73	0x3d10d5d3	0.03536017
74	0x3d0e05c1	0.034673456
75	0x3a355ffc	0.0006918905
76	0x3dd12bf1	0.10213459
77	0x3dc3556b	0.095377766
78	0x3e67c9df	0.22635601
79	0xbd213db9	-0.039365504
80	0xbd778c72	-0.060436673
81	0x3dcc3d60	0.09972644
82	0xbcdcadff	-0.026938437
83	0xbd505e4c	-0.05087118
84	0xbce1fc02	-0.027585987
85	0x3e33a678	0.17543972
86	0xbd671de0	-0.056424975
87	0x3d091a2e	0.033472233
88	0x3e0cbc2a	0.13743654
89	0xbcb26172	-0.021774981
90	0xbdf75ffd	-0.12078855
91	0x3d4497f1	0.047996465
92	0xbb84866d	-0.004044345
93	0xbcd99712	-0.026561294
94	0xbe619c90	-0.2203238
95	0x3e3eb067	0.1862198
96	0x3c515beb	0.012778263
97	0xbeb272f5	-0.3485333
98	0xbd4d225a	-0.05008159
99	0x3dd8942d	0.10575137
100	0x3e3af7aa	0.18258539
101	0xbe76cfc9	-0.24102701
102	0xbe37cb1f	-0.17948578
103	0x3db51cd7	0.088433914
104	0xbd63d5ff	-0.055624004
105	0x3d25b4cd	0.04045563
106	0x3d5e448a	0.054264583
107	0xbc49ee6c	-0.012324911
108	0xbd09d3f1	-0.03364939
109	0xbd94a429	-0.072578736
110	0x3de4df1f	0.111753695
111	0xbce2d0f1	-0.027687522
112	0xbe289ec1	-0.1646681
113	0xbd1c3bdd	-0.038143028
114	0xbe7ed9c4	-0.24887758
115	0x3d899774	0.067183405
116	0xbd272eb6	-0.04081603
117	0xbdab5064	-0.08364943
118	0xbde6b29c	-0.11264536
119	0xbccebd90	-0.025236875
120	0xbd56cda4	-0.052442208
121	0xbe07d643	-0.13265328
122	0xbd0ba692	-0.0340944
123	0xbe739702	-0.23788074
124	0x3b517c6e	0.0031965035
125	0xbc85fef7	-0.016356928
126	0xbe7bc7ae	-0.2458789
127	0xbd62240b	-0.055210155
128	0x3e13e7d5	0.14443906
129	0xbc824c28	-0.015905455
130	0x3d14991d	0.036278833
131	0x3c67b04b	0.014141153
132	0xbceace29	-0.028662758
133	0xbe116b66	-0.14201126
134	0xbda0dbf1	-0.078544505
135	0xbe262ac2	-0.16227248
136	0x3d935b22	0.071951166
137	0x3d63c031	0.05560321
138	0xbdf725d6	-0.120677635
139	0x3cea6c2e	0.028616037
140	0xbd40c792	-0.047065325
141	0xbc56df90	-0.013114825
142	0xbda35025	-0.07974271
143	0xbc53c93a	-0.012926394
144	0xbc839730	-0.016063303
145	0xbe0711b8	-0.13190353
146	0xbd7f7bc1	-0.06237388
147	0xbcf5f90d	-0.030025983
148	0x3c726c1f	0.014796286
149	0x3dc118c6	0.09428553
150	0xbd40a8ef	-0.047036108
151	0xbccfc660	-0.025363147
152	0xbc016ea2	-0.007899912
153	0xbda9f3dd	-0.08298466
154	0x3dbacb50	0.0912081
155	0x3d8334d2	0.06406559
156	0xbd3ceae8	-0.04612246
157	0x3d0e242e	0.034702472
158	0x3d2ead54	0.042645767
159	0x3df7c171	0.12097443
160	0x3aec2404	0.0018016105
161	0x3e1bc3f7	0.15211473
162	0xbcb33fa7	-0.021880938
163	0xbcb370c4	-0.021904357
164	0xbe922891	-0.28546575
165	0x3daf6385	0.08563904
166	0x3de150ba	0.110017255
167	0x3d00490f	0.031319674
168	0x3d9cec2e	0.07662235
169	0xbe82fa24	-0.25581467
170	0x3cd6966d	0.026194775
171	0xbe4c9062	-0.19976953
172	0xbdbe47a7	-0.0929101
173	0x3d2d939d	0.042377103
174	0x3caa6169	0.020798402
175	0xbd9b0e3f	-0.075710766
176	0xbd42e240	-0.04757905
177	0xbd222bd1	-0.039592568
178	0xbc39edcf	-0.011348202
179	0x3d81a30c	0.06329927
180	0xbe210be0	-0.15727186
181	0xbc90d4e4	-0.01767964
182	0xbe9dc746	-0.30816096
183	0xbde30925	-0.110857286
184	0xbc3b6592	-0.0114377905
185	0xbd445b3e	-0.047938578
186	0x3bb74fea	0.0055942433
187	0xbcac19ff	-0.02100849
188	0x3d4880ee	0.048951082
189	0xbea72461	-0.32644942
190	0xbe10b1bd	-0.14130302
191	0xbd8c240c	-0.06842813
192	0x3e2d3dbb	0.1691808
193	0xbc475bea	-0.01216791
194	0xbd318791	-0.043342177
195	0xbe6dd734	-0.23226625
196	0x3cabb2d7	0.0209593
197	0xbdb246ae	-0.08704887
198	0xbc9ae873	-0.018909669
199	0x3d14e8db	0.03635488
200	0x3dace0e0	0.08441329
201	0xba33dc98	-0.0006861179
202	0xbe081c5d	-0.1329207
203	0xbdbe4b78	-0.09291738
204	0xbd952291	-0.07281984
205	0x3c52b5fd	0.012860772
206	0x3e10070d	0.1406519
207	0x3cb4dd17	0.02207808
208	0xbe8a0469	-0.2695649
209	0x3da0a61c	0.07844183
210	0xbc2d0d7f	-0.0105623
211	0xbbbc750f	-0.005751259
212	0x3d0f6f13	0.035018038
213	0xbdb708bf	-0.08937215
214	0x3b999c15	0.004687796
215	0x3cbbdc8c	0.022932313
216	0xbd43829c	-0.04773198
217	0x3cf6bb4d	0.030118609
218	0x3ddc412e	0.107546195
219	0x3cb25509	0.021769064
220	0x3c52ceaf	0.01286666
221	0x3c8b8f53	0.017036116
222	0x3d85de38	0.065365255
223	0xbcb6dda2	-0.02232248
224	0x3d24dd30	0.040250003
225	0x3d7ae53f	0.061253782
226	0x3d0ec87c	0.034859166
227	0xbd728fdd	-0.05921923
228	0xbdde2e1d	-0.10848639
229	0x3e622b06	0.22086725
230	0x3dd77b24	0.10521534
231	0xbdb99d64	-0.09063223
232	0x3cfa60f5	0.03056381
233	0xbd3e3372	-0.04643578
234	0xbe196396	-0.14979395
235	0x3ba0b764	0.0049046744
236	0x3e177875	0.14792044
237	0xbd0ac82b	-0.0338823
238	0xbcbe968a	-0.023265142
239	0x3e0a693a	0.13516703
240	0xbd29e76b	-0.041480463
241	0xbe61b254	-0.22040683
242	0xbe32f9bf	-0.17478083
243	0xbceb0e52	-0.028693352
244	0xbd966900	-0.07344246
245	0xbd979221	-0.07400919
246	0xbce3f338	-0.027825937
247	0xbd32f0ca	-0.043686666
248	0xbc70ba08	-0.014692791
249	0x3db1053e	0.08643578
250	0xbd3cc548	-0.04608658
251	0xbe1e4ff8	-0.15460193
252	0xbe231658	-0.15926492
253	0xbb7192c6	-0.0036861165
254	0x3915d537	0.00014289176
255	0x3dff413a	0.12463613

fc2.bias f4 [10]
0	0xbe881730	-0.2658019
1	0xbe403649	-0.18770708
2	0xbdffe958	-0.12495679
3	0x3e7a429c	0.24439472
4	0x3eb2836e	0.34865898
5	0xbe11aef5	-0.14226897
6	0xbe1150db	-0.14191
7	0xbe095bb5	-0.1341389
8	0x3e3e85ee	0.18605778
9	0x3d785c45	0.06063487
